gym_pybullet_drone/nn3_1.pth (torch, 82263 bytes, 6 tensors)

weight f4 [128, 18]
0	0xbe256ef7	-0.16155611
1	0xbc1afd77	-0.009459845
2	0x3c474b7e	0.012163995
3	0xbddb4148	-0.10705811
4	0x3b0d67c6	0.0021576746
5	0xbe090aaf	-0.13382982
6	0xbdd2c836	-0.102920935
7	0xbdd24306	-0.1026669
8	0x3d802b9b	0.06258317
9	0xbc321067	-0.010868168
10	0xbcaf6363	-0.021409696
11	0xbe270fd0	-0.16314626
12	0xbe120eec	-0.14263505
13	0xbe2fa6ec	-0.1715352
14	0xbc5de47b	-0.0135432435
15	0x3e37bd44	0.17943293
16	0xbe0de02b	-0.13855045
17	0x3e0332c5	0.12812336
18	0xbd552a41	-0.05204225
19	0xbe6be04e	-0.23034784
20	0xbe02b791	-0.12765338
21	0xbcad02fa	-0.021119583
22	0x3e49c4c8	0.19703972
23	0xbe045b3b	-0.12925427
24	0xbdc263ae	-0.09491669
25	0x3e09b847	0.13449202
26	0x3c97eeb4	0.01854644
27	0x3e2f39ba	0.17111865
28	0x3c5b05cd	0.013368082
29	0x3dba9bb0	0.09111726
30	0xbc4af98b	-0.012388597
31	0xbd7148a7	-0.058907177
32	0x3e2b09ff	0.16703032
33	0xbdbed9c4	-0.09318879
34	0xbe3dad0c	-0.18523043
35	0x3e2b69b8	0.16739547
36	0x3d8cb1a7	0.06869822
37	0xbe2414a5	-0.160235
38	0xbd90ead4	-0.0707604
39	0xbe263d84	-0.16234404
40	0x3e3d52a6	0.18488559
41	0x3e241a60	0.16025686
42	0xbd9fed04	-0.07808879
43	0xbda8f854	-0.0825049
44	0xbe3aad8f	-0.1823027
45	0xbe47fa7b	-0.19529144
46	0xbda344c3	-0.079721
47	0xbe5c4589	-0.215109
48	0x3d3708f0	0.044686258
49	0x3da8b6f1	0.08238018
50	0xbd5a980a	-0.053367652
51	0xbe679986	-0.22617158
52	0xbdad5ae0	-0.08464599
53	0xbd0edc46	-0.034878038
54	0xbe449cbc	-0.19200414
55	0xbcb7befa	-0.022429932
56	0x3c9b7058	0.018974468
57	0xbd116661	-0.035498027
58	0xbc27a924	-0.010233197
59	0x3e66850b	0.2251169
60	0xbdb04aef	-0.086080424
61	0xbd817eba	-0.06322999
62	0x3e614da9	0.22002281
63	0xbe3248df	-0.1741061
64	0x3dd59be0	0.104301214
65	0x3db122a0	0.08649182
66	0xbe322ce3	-0.17399935
67	0xbb9000e0	-0.0043946356
68	0x3d80083c	0.062515706
69	0xbe62e6c4	-0.22158343
70	0xbc74b230	-0.014935061
71	0x3e69bfb7	0.2282704
72	0x3c96ddd5	0.018416325
73	0xbdff68d5	-0.12471167
74	0xbdc7c9b5	-0.097552694
75	0xbe54cfa9	-0.20782341
76	0xbdfbb12d	-0.12289653
77	0x3e642af9	0.22282018
78	0xbe12343b	-0.14277737
79	0x3e1bd976	0.15219674
80	0xbc94db04	-0.018170841
81	0xbdf9723a	-0.1217999
82	0x3d3a8020	0.045532346
83	0xbc18fb24	-0.00933722
84	0xbd00b1e0	-0.031419635
85	0xbd0bfe8e	-0.03417831
86	0x3d6206fa	0.055182435
87	0x3d134a2e	0.035959415
88	0x3e6dbb2e	0.23215935
89	0x3e336eda	0.17522755
90	0x3c9d92a0	0.019234955
91	0xbc4fb1cd	-0.012676668
92	0xbe113176	-0.14179024
93	0x3e112939	0.14175881
94	0xbe6b4b4a	-0.22977939
95	0x3d4af828	0.049553066
96	0xbdc09b92	-0.09404673
97	0xbcc5ac1b	-0.024129918
98	0x3e0a3742	0.13497642
99	0x3e2f70b2	0.17132834
100	0xbe1688af	-0.14700578
101	0x3d970689	0.07374293
102	0xbd26a405	-0.040683765
103	0x3e5a9040	0.2134409
104	0x3e39d461	0.18147422
105	0xbe3f477a	-0.1867961
106	0xbc0c9bdb	-0.008582081
107	0xbdb2c03a	-0.087280706
108	0x3e552f5a	0.20818844
109	0x3e39e4b4	0.1815365
110	0xbe5dc6b7	-0.21657835
111	0xbe64b645	-0.22335155
112	0xbe6157d9	-0.22006167
113	0xbe1b32b3	-0.15156059
114	0xbe091a33	-0.133889
115	0xbd94088b	-0.07228192
116	0x3dc75e92	0.09734835
117	0xbd06251d	-0.032750238
118	0x3e2609e8	0.16214716
119	0x3e345895	0.17611916
120	0x3dd1cd40	0.102442265
121	0xbd77319e	-0.060350053
122	0xbb86bdd7	-0.004111986
123	0x3d2f9900	0.04287052
124	0xbe38ba3f	-0.18039797
125	0x3e3d3184	0.1847592
126	0x3e1e4476	0.15455803
127	0x3e7421ff	0.23841093
128	0x3e38fb02	0.18064502
129	0xbe188810	-0.14895654
130	0xbe24e0c4	-0.16101366
131	0xbe26d20a	-0.16291061
132	0x3d599e96	0.053129755
133	0x3e2e0254	0.16993076
134	0xbe246cba	-0.16057101
135	0xbd2013d5	-0.039081413
136	0xbd97feaa	-0.0742162
137	0x3e244ae9	0.16044201
138	0x3df032c2	0.11728431
139	0x3dc0a3cd	0.094062425
140	0x3e583e87	0.21117602
141	0xbdf11955	-0.1177241
142	0xbe3029ae	-0.172034
143	0xbe388fa7	-0.18023549
144	0xbe70a3ea	-0.23500028
145	0x3e29fdf5	0.16600783
146	0x3d1deedc	0.038557872
147	0x3d6e019b	0.058107
148	0x3dc56711	0.09638799
149	0xbe092c04	-0.13395697
150	0xbdd0da48	-0.10197884
151	0x3dfa9a7b	0.12236496
152	0xbd883c75	-0.06652156
153	0x3de69c51	0.11260284
154	0x3e636a02	0.22208408
155	0x3d09dff2	0.033660837
156	0xbd068b5d	-0.03284775
157	0xbe421aac	-0.18955487
158	0xbe55aa14	-0.20865661
159	0x3d94ab38	0.0725922
160	0xbe2ac2a4	-0.16675812
161	0xbe6349d5	-0.22196133
162	0xbe0a47c8	-0.13503945
163	0xbdc87662	-0.09788205
164	0x3e07a49e	0.1324639
165	0x3c2beb52	0.010493116
166	0x3e07ca23	0.13260703
167	0xbdeb68a3	-0.11494567
168	0xbb80b0a1	-0.003927306
169	0x3e71eecf	0.23626254
170	0xbe3f0b11	-0.18656565
171	0xbe3eaca0	-0.18620539
172	0xbd1318c1	-0.03591228
173	0xbc9096ee	-0.017650094
174	0xbe59f668	-0.21285403
175	0x3db29573	0.087199114
176	0x3e0ff8c9	0.14059748
177	0x3d8b2a4d	0.067951776
178	0xbdb74926	-0.08949499
179	0xbe5b3927	-0.2140852
180	0xbe3d7dd4	-0.18505031
181	0x3db06ef9	0.08614916
182	0x3df40000	0.119140625
183	0xbe073249	-0.13202776
184	0x3cfba68b	0.030719062
185	0xbdfb31b5	-0.1226534
186	0x3e159142	0.14606193
187	0x3e0c7fae	0.13720581
188	0xbe5781ea	-0.21045652
189	0x3de4cfad	0.111724235
190	0x3e41d350	0.18928266
191	0xbe25e1ff	-0.16199492
192	0xbe54b2f0	-0.20771384
193	0x3e27a035	0.16369708
194	0x3d817509	0.06321151
195	0xbe2cb922	-0.16867498
196	0x3da30731	0.07960356
197	0xbe0c4501	-0.13698198
198	0x3de394f8	0.11112398
199	0xbc91941a	-0.017770816
200	0xbe554f9e	-0.20831153
201	0xbdd0dfe2	-0.10198952
202	0x3d0703da	0.032962658
203	0xbda147c2	-0.07875015
204	0xbd8d158d	-0.06888876
205	0x3ce54ee6	0.027991723
206	0xbe46e338	-0.19422615
207	0x3e604a1a	0.21903268
208	0x3e18c4aa	0.14918771
209	0xbe4ec992	-0.2019408
210	0xbd3674d7	-0.04454502
211	0xbde5df60	-0.11224246
212	0xbe66a945	-0.22525509
213	0xbe5e28e3	-0.21695285
214	0xbcb1e97d	-0.021717781
215	0xbca05e99	-0.019576358
216	0x3e12678a	0.1429731
217	0x3d6952fd	0.05696391
218	0x3d9101ca	0.07080419
219	0x3d9e9a2b	0.07744249
220	0xbe28f545	-0.16499813
221	0x3e65120b	0.22370164
222	0x3e5374f9	0.2065009
223	0xbd10836b	-0.03528158
224	0xbe46f9aa	-0.19431177
225	0x3e0e3d0d	0.13890477
226	0x3936b4d5	0.00017424238
227	0xbd3e6f1b	-0.046492677
228	0xbe56b602	-0.20967868
229	0xbdcd5182	-0.10025312
230	0xbe1c8b87	-0.152876
231	0x3e69ee69	0.22844853
232	0xbe6ba9df	-0.2301402
233	0xbdb0f09e	-0.08639644
234	0x3e3861f4	0.18006116
235	0xbe561149	-0.20905031
236	0xbc19a76f	-0.009378298
237	0x3e30aaa6	0.17252597
238	0x3e1d8129	0.15381302
239	0xbe0268cb	-0.12735288
240	0xbda33329	-0.079687424
241	0xbe4c4cfc	-0.19951242
242	0xbe5607d6	-0.20901427
243	0xbe5b59e4	-0.2142101
244	0x3e3b34d2	0.18281868
245	0x3cc60498	0.024172112
246	0x3d5ad06c	0.053421423
247	0xbc9de387	-0.019273533
248	0x3e3601a0	0.17774057
249	0x3dc4d383	0.09610655
250	0xbcb3da20	-0.021954596
251	0x3dcc8548	0.09986359
252	0x3e5f0c2c	0.21781987
253	0xbdaf6d96	-0.08565824
254	0x3d80438c	0.062628835
255	0xbdbe7918	-0.093004405

bias f4 [128]
0	0xbce28db3	-0.027655458
1	0xbe4b7fea	-0.19873014
2	0xbcd572d5	-0.026055733
3	0x3dba70ff	0.091035835
4	0xbe5b76a2	-0.21431974
5	0x3e17f45b	0.14839308
6	0x3e50c480	0.20387459
7	0xbd27e789	-0.040992294
8	0x3d1c4f2b	0.038161438
9	0x3e324189	0.17407812
10	0xbe3dcf84	-0.18536192
11	0x3e41d272	0.18927935
12	0xbdfe6583	-0.124217056
13	0x3e675cb4	0.22593957
14	0x3e0f4e56	0.13994727
15	0xbe3799a3	-0.17929702
16	0x3e7b40af	0.24536394
17	0xbe51c77c	-0.20486253
18	0xbd8d550b	-0.06900986
19	0xbdfdbd9e	-0.12389682
20	0xbe0aa3ba	-0.13539019
21	0xbe3784d2	-0.1792176
22	0xbe0780c8	-0.1323272
23	0x3e44f322	0.19233373
24	0x3c3f4050	0.011673048
25	0xbd352196	-0.044221483
26	0x3d2398cf	0.03994065
27	0xbe013b75	-0.12620337
28	0x3db0bac4	0.08629373
29	0xbe55b876	-0.20871148
30	0xbcce3849	-0.025173323
31	0x3b9715ce	0.0046107536
32	0xbe2e44e7	-0.17018472
33	0x3d9c6362	0.07636143
34	0x3dfd88ea	0.1237963
35	0x3de6d2a7	0.112706475
36	0x3e5cbbc4	0.21556002
37	0xbdb51028	-0.08840972
38	0xbe0459d6	-0.12924895
39	0xbd6c6f7d	-0.05772351
40	0x3da2e4f8	0.079538286
41	0xbd7e932f	-0.062152084
42	0xbe1eee3e	-0.1552057
43	0xbda30bb9	-0.0796122
44	0xbd91f162	-0.07126118
45	0x3e767568	0.24068224
46	0x3e79300e	0.24334738
47	0xbe6d71c1	-0.23187925
48	0xbe49a692	-0.19692448
49	0x3e103798	0.14083707
50	0xbdd8773a	-0.10569616
51	0xbdaea190	-0.08526909
52	0xbe2143c8	-0.15748513
53	0xbd12ba23	-0.035822045
54	0x3e275f95	0.16345055
55	0x3e09037c	0.13380235
56	0xbe025b3e	-0.12730119
57	0xbe09b50f	-0.13447975
58	0x3e6e7d1f	0.23289917
59	0x3d06059e	0.0327202
60	0xbdeaa818	-0.114578426
61	0xbe513bfe	-0.20433041
62	0xbd4b0a6b	-0.049570482
63	0xbe2c4fd1	-0.16827323
64	0xbd580114	-0.052735403
65	0x3e4a717b	0.19769852
66	0xbe460b5b	-0.1934027
67	0x3bca92d7	0.0061820555
68	0xbe0e006d	-0.1386735
69	0x3dab7b2e	0.08373104
70	0xbe4a93fd	-0.19783016
71	0xbdf1e44e	-0.11811124
72	0x3e47a764	0.19497448
73	0x3dd1bbb9	0.102408834
74	0xbde813e6	-0.1133192
75	0xbcc730cd	-0.024315262
76	0x3c4eceec	0.012622576
77	0x3e4e9043	0.20172219
78	0x3e3edbaa	0.18638483
79	0x3dd18cfd	0.102319695
80	0x3a114eca	0.00055430515
81	0x3e58d920	0.21176577
82	0x3809f62a	3.2892603e-05
83	0x3b392d88	0.0028255899
84	0x3e3da2a8	0.1851908
85	0x3e3f79b4	0.1869877
86	0xbe51a955	-0.20474751
87	0xbd57fa7f	-0.052729126
88	0x3e2aa44d	0.16664238
89	0xb9ae818b	-0.00033284383
90	0xbe110014	-0.14160186
91	0x3e22c28c	0.15894526
92	0x3d8a6141	0.06756831
93	0x3db14bee	0.086570606
94	0xbdbc2cdf	-0.09188246
95	0xbe3b1e7d	-0.18273349
96	0x3dcad707	0.099042945
97	0xbd096e74	-0.033552602
98	0x3e68a9de	0.22721049
99	0xbe5fcdf7	-0.21855913
100	0xbe3e6910	-0.18594766
101	0xbe18c2d6	-0.14918074
102	0x3daf92b3	0.085729025
103	0xbd93131c	-0.07181379
104	0x3e6a715b	0.22894804
105	0x3d2e37ff	0.04253387
106	0xbe226b9a	-0.15861359
107	0x3dca7f21	0.09887529
108	0xbe256d46	-0.16154966
109	0x3e5d3ab5	0.21604426
110	0x3dcb2890	0.09919846
111	0x3e53699d	0.20645757
112	0xbdb7328f	-0.0894519
113	0xbe2c19a9	-0.16806664
114	0x3e359336	0.17731938
115	0xbb71eadc	-0.0036913669
116	0xbe5c3139	-0.21503152
117	0xbe0831e4	-0.13300282
118	0xbd125a1c	-0.035730466
119	0x3a955f5c	0.0011396217
120	0x3da7760c	0.081768125
121	0x3e1306ab	0.14358012
122	0x3bd816fa	0.006594536
123	0xbac1390a	-0.001474173
124	0x3e764c34	0.24052507
125	0x3d78f326	0.06077876
126	0xbe32bd17	-0.17454945
127	0xbd04a829	-0.032386933

weight f4 [128, 128]
0	0xbd02e94f	-0.03196078
1	0x3d8b7ea1	0.06811262
2	0x3c66c98a	0.014086137
3	0xbc1ccb47	-0.0095699495
4	0x3af70924	0.0018847329
5	0xbcc41ab8	-0.023938522
6	0x3cacb16e	0.021080699
7	0xbce04832	-0.027378175
8	0x3d92a5df	0.07160544
9	0xbd4f9c15	-0.05068596
10	0xbd43d8ef	-0.047814306
11	0x3d775d4f	0.06039172
12	0x3a7856a9	0.00094733626
13	0xbaabe72e	-0.0013115162
14	0x3ce4b06e	0.02791616
15	0xbd88557c	-0.0665693
16	0xbd9f7705	-0.07786373
17	0xbdaf9622	-0.085735574
18	0x3da3e5bd	0.080028035
19	0xbd4007d9	-0.046882484
20	0x3d4788f8	0.048714608
21	0xbd6d5663	-0.057943713
22	0xbd8f3d90	-0.06994164
23	0x3d382f2a	0.044966854
24	0x3d935e30	0.07195699
25	0x3db6282c	0.08894381
26	0x3ced7c03	0.028989797
27	0x3d9d37f7	0.0767669
28	0x3b2cfb77	0.0026395002
29	0xbda2f639	-0.079571195
30	0x3c25effb	0.010128017
31	0xbbb29bec	-0.0054507162
32	0x3d5023c6	0.050815366
33	0xbcaffad2	-0.021481905
34	0x3d24388d	0.040092994
35	0x3c7f0b8a	0.015566716
36	0x3d07e60b	0.03317837
37	0x3d3b411c	0.04571639
38	0xbd533319	-0.051562402
39	0xbb97706e	-0.004621557
40	0xbca94abe	-0.020665523
41	0xbcecff81	-0.028930428
42	0x3d7466e6	0.059668444
43	0x3cbbdfb2	0.022933815
44	0xbd53f403	-0.05174638
45	0x3da84995	0.0821716
46	0x3ba283de	0.0049595674
47	0xbd8853dc	-0.0665662
48	0x3c3e1e58	0.011603914
49	0xbc41213d	-0.01178771
50	0x38b4534f	8.598586e-05
51	0x3d8b97a9	0.06816036
52	0xbcc980a4	-0.024597473
53	0x3c889e7e	0.016677137
54	0x3ce59854	0.028026737
55	0x3d1154bf	0.03548121
56	0xbcb97a68	-0.022641376
57	0x3d42d6ab	0.047568005
58	0xbda2d0ef	-0.07950007
59	0x3c735d0b	0.014853726
60	0x3d7e2536	0.062047206
61	0x3d977700	0.07395744
62	0xbd3db62f	-0.046316322
63	0xbd5f6d95	-0.054547865
64	0x3c142cb0	0.009043857
65	0x3d959cf7	0.07305329
66	0xbda97451	-0.08274139
67	0x3d96e2a0	0.07367444
68	0x3d40ad82	0.04704047
69	0x3c81b238	0.015832052
70	0xbc9759fb	-0.018475523
71	0xbd615301	-0.0550108
72	0xbd873938	-0.066027105
73	0x3d5c7ff7	0.053832974
74	0x3a1a59de	0.0005888025
75	0x3dc1fddc	0.09472248
76	0x3dae6e30	0.0851711
77	0x3d78ef59	0.060775135
78	0x3da3312f	0.079683654
79	0x3d5b3c66	0.053524397
80	0xbd33a4db	-0.04385839
81	0xbc8a28cc	-0.016865157
82	0x3d97e664	0.074169904
83	0xbb5476d1	-0.0032419453
84	0x3cfc9c23	0.03083617
85	0x3da2d809	0.07951362
86	0x3cafb8aa	0.02145036
87	0xbd6a6bb3	-0.057231616
88	0x3db74ef4	0.08950606
89	0x3a9261af	0.0011168028
90	0x3cd6d81f	0.026226101
91	0x3c9d8070	0.019226283
92	0xbcb856a0	-0.022502244
93	0x3d5ca6b6	0.053869925
94	0xbd4f8b1d	-0.05066978
95	0xbce5a13c	-0.028030984
96	0x3d1f570f	0.038901385
97	0xbda4862e	-0.08033405
98	0x3d4791f2	0.04872317
99	0xbc9c1ad3	-0.01905576
100	0xbd485474	-0.048908666
101	0x3db275ee	0.087138996
102	0x3d94247e	0.07233523
103	0xbd58e40d	-0.05295186
104	0xbd2f4656	-0.042791687
105	0x3cf7bbe1	0.030240955
106	0x3d209f15	0.039214212
107	0xbd447162	-0.047959693
108	0xbc3c38f2	-0.011488186
109	0xbd68527a	-0.05671928
110	0x3d98cae7	0.074605756
111	0x3da89e0d	0.08233271
112	0x3cbfff03	0.023437029
113	0xbb2e4bc6	-0.0026595457
114	0x3d724b18	0.059153646
115	0x3d8f8665	0.070080556
116	0xbda025b9	-0.07819695
117	0xbd3dec08	-0.046367675
118	0x3dc523c0	0.096259594
119	0xbd616560	-0.05502832
120	0x3da4fb79	0.08055777
121	0x3c8dbea6	0.017302822
122	0xbd866179	-0.0656156
123	0xbd8a15e1	-0.06742454
124	0xbc3fca19	-0.011705899
125	0xbd0362c5	-0.032076616
126	0xbd1d8133	-0.038453292
127	0xbdb02e6f	-0.086026065
128	0xbc613151	-0.013744668
129	0x3d4134fa	0.047169663
130	0x3d489098	0.04896602
131	0x3d92be0a	0.07165153
132	0xbd52ec42	-0.051494844
133	0xbd1deaaf	-0.03855389
134	0xbd5dc908	-0.054146796
135	0xbd4df30a	-0.05028061
136	0xbd545c4b	-0.05184583
137	0x3c8a321f	0.016869603
138	0xbd883156	-0.06650035
139	0xbd876609	-0.066112585
140	0xbd9c91e5	-0.07645015
141	0xbcf23b03	-0.029569155
142	0xbcacf579	-0.021113144
143	0x3c310024	0.010803256
144	0x3af9f05e	0.0019068827
145	0x3d81fbb7	0.06346839
146	0x3c94424f	0.018098025
147	0xbd2a4619	-0.041570757
148	0xbd92e6e3	-0.071729444
149	0xbd891ade	-0.06694578
150	0x3d863ad1	0.06554187
151	0x3d9dae12	0.07699217
152	0x3da5a056	0.08087222
153	0x3d911cf5	0.07085601
154	0xbdac793a	-0.0842156
155	0x3c0ddf97	0.008659265
156	0x3da4d307	0.08048063
157	0xbcdeb31b	-0.027185014
158	0x3cb18741	0.02167094
159	0x3d17745e	0.03697621
160	0x3cddeaa8	0.027089432
161	0xbdb6b733	-0.08921661
162	0x3c6b31e9	0.014355161
163	0x3d2ad296	0.041704737
164	0xbd533876	-0.051567517
165	0xbd65194f	-0.05593234
166	0xbd78c2a7	-0.06073251
167	0x3d827acd	0.06371079
168	0xbd72c558	-0.059270233
169	0x3d5b01d0	0.053468525
170	0xbce4860b	-0.027895948
171	0xbd03620a	-0.03207592
172	0x3db3ab16	0.087728664
173	0xbd8fddf7	-0.07024758
174	0xbd53414e	-0.05157595
175	0x3c6a4669	0.014299014
176	0xbcfe7ead	-0.031066263
177	0xbcd36a6d	-0.025807584
178	0x3d39dc74	0.045376256
179	0xbd57cd23	-0.052685868
180	0xbda5b38c	-0.080908865
181	0xbd928c98	-0.071557224
182	0xbc59f9c1	-0.013304175
183	0xbd36b8dc	-0.04460989
184	0x3d00c2c5	0.031435747
185	0xbd725875	-0.05916639
186	0x3b086123	0.002080985
187	0xbd691850	-0.05690795
188	0x3d170e3f	0.03687882
189	0x3d2d7c3e	0.042354815
190	0x3d04fd53	0.03246815
191	0xbcaa3069	-0.020775037
192	0x3d4fadad	0.05070274
193	0x3d6f0622	0.058355458
194	0xbda21597	-0.07914274
195	0xbd865755	-0.06559626
196	0xbcbefc83	-0.023313766
197	0x3d6de32e	0.058077984
198	0xbd8f7ab3	-0.07005825
199	0xbda23f75	-0.0792226
200	0x3d853a37	0.06505244
201	0xbd266d3b	-0.040631514
202	0x3ce9690c	0.028492473
203	0xbd6d4a89	-0.05793241
204	0x3d38c27d	0.045107353
205	0x3d9f7dc0	0.07787657
206	0x3cd6880b	0.026187917
207	0x3da3a8ab	0.07991155
208	0xbca69477	-0.020334465
209	0x3d9e16ab	0.07719167
210	0x3c2e6a76	0.010645499
211	0xbd71cab0	-0.05903119
212	0xbbe8df79	-0.007106718
213	0x3a55acef	0.0008151074
214	0x3d090a99	0.033457372
215	0x3d4cf99e	0.05004274
216	0x3c589f3e	0.01322156
217	0x3d0e9468	0.0348095
218	0xbd07ee8b	-0.033186477
219	0x3d991935	0.07475511
220	0xbcc44f37	-0.023963554
221	0xbd84f6ec	-0.06492409
222	0xbda24ee7	-0.07925206
223	0xbd41f361	-0.047351245
224	0x3c912462	0.017717544
225	0x3d45baf9	0.048274014
226	0x3c041597	0.008061788
227	0x3d5383a8	0.05163923
228	0xbd96e163	-0.07367208
229	0x3d21b9d6	0.039483868
230	0x3d2a7293	0.041613173
231	0x3ca6f357	0.020379705
232	0x3da93576	0.0826215
233	0xbdb19f62	-0.08672978
234	0x3d17f8cc	0.037102506
235	0x3d8181cb	0.06323584
236	0x3da28bb3	0.07936802
237	0x3d1a1819	0.037620638
238	0x3da2a40b	0.07941445
239	0x3d78c945	0.06073882
240	0xbdb5f3cf	-0.088843934
241	0xbce1abd7	-0.02754776
242	0xbcdc01c0	-0.026856303
243	0x3d80f9cc	0.06297645
244	0x3d901af6	0.070363924
245	0xbcafee57	-0.021475954
246	0x3ce9ed8c	0.028555654
247	0x3d1dcaf2	0.03852362
248	0x3c974b0a	0.018468399
249	0x3cb4210d	0.021988416
250	0xbd16971d	-0.036765207
251	0xbcff6d7d	-0.031180138
252	0x3d6e54ba	0.05818627
253	0x3db353da	0.08756228
254	0xbd0a5a96	-0.033777796
255	0xbd7bb1c6	-0.061448835

bias f4 [128]
0	0x3dbcd5a6	0.09220438
1	0x3d9c481f	0.076309435
2	0x3d31f8f0	0.043450296
3	0xbc8ccbba	-0.017186988
4	0xbd635491	-0.05550057
5	0x3b96cfe7	0.0046024206
6	0x3c40a626	0.011758363
7	0x3d0af3d3	0.033923935
8	0xbd911e35	-0.0708584
9	0x3dc55ca4	0.096368104
10	0x3dae9356	0.08524196
11	0xbd1ec8a5	-0.03876557
12	0xbd484e39	-0.048902724
13	0x3d905882	0.070481315
14	0x3c4b3003	0.012401584
15	0xbdb18041	-0.086670406
16	0xbd9e3fcd	-0.07727013
17	0xbc931151	-0.017952593
18	0xbd28b68b	-0.04118971
19	0x3d9b88b9	0.07594437
20	0xbd0041b3	-0.031312656
21	0xbcd3d0d0	-0.025856405
22	0xbd9c1a71	-0.07622231
23	0x3d36112d	0.044449974
24	0xbd230f6f	-0.03980964
25	0xbcde7261	-0.02715415
26	0x3c3b1ef9	0.011420959
27	0x3d53bab2	0.05169172
28	0xbdac29b3	-0.08406391
29	0x3c6ce595	0.0144590335
30	0xbd86ae97	-0.06576269
31	0x3cc42fc7	0.023948563
32	0x3d0dbb83	0.034602653
33	0xbd9d8816	-0.07691972
34	0xbd786daf	-0.060651477
35	0xbd367484	-0.04454471
36	0xbcd04f14	-0.025428332
37	0xba715449	-0.000920598
38	0x3d7307b9	0.059333537
39	0xbce3af03	-0.027793413
40	0xbc6d8454	-0.0144968815
41	0x3be56a4f	0.0070011984
42	0xbd61f0b8	-0.055161208
43	0x3cd7929b	0.026315024
44	0x3d352c05	0.044231433
45	0x3d8c2d26	0.06844549
46	0xbc506884	-0.012720231
47	0x3da318b8	0.07963699
48	0xbd91defc	-0.07122609
49	0x3d5489f3	0.05188937
50	0xbca33a92	-0.01992539
51	0xbd7a7c17	-0.061153498
52	0xbd9f904d	-0.07791195
53	0x3b58065f	0.0032962782
54	0x3dc4bce7	0.09606343
55	0x3d50af6d	0.05094855
56	0x3dc3afe7	0.09555035
57	0xbd5de2fd	-0.05417155
58	0xbd19d538	-0.037556857
59	0xbcac5211	-0.021035226
60	0x3da67703	0.081281684
61	0x3d06fd54	0.032956436
62	0x3ae55a4d	0.0017498225
63	0xbb34a58e	-0.0027564499
64	0x3d89295a	0.0669734
65	0x3b986c33	0.00465157
66	0x3d124e45	0.035719175
67	0xbcd7c41c	-0.02633863
68	0x3dba6306	0.091009185
69	0x3caf5f10	0.021407634
70	0xbd82be5b	-0.06383964
71	0xbd455d3c	-0.04818462
72	0xbcc29a1e	-0.02375513
73	0x3d2f220f	0.04275709
74	0x3d3f5e08	0.046720535
75	0xbc81076f	-0.015750615
76	0x3b7fbb45	0.0039021533
77	0x3d6058ca	0.054772176
78	0xbd8e8a5e	-0.06959985
79	0x3d627f65	0.055297274
80	0x3cd68c74	0.02619002
81	0xbd1b55f1	-0.037923757
82	0x3d64e194	0.05587919
83	0xbd50a46b	-0.05093805
84	0x3d973e18	0.0738489
85	0x3d2a4b54	0.041575745
86	0xbd24cd06	-0.040234588
87	0xbc980da2	-0.018561188
88	0xbcd04ac8	-0.025426283
89	0xbd8e967e	-0.06962298
90	0x3c44884a	0.0119953845
91	0xbd5fa335	-0.054599006
92	0x3ccf51a1	0.025307478
93	0x3b25943f	0.0025265364
94	0xbd85e3c2	-0.06537582
95	0x3bc48661	0.0059974645
96	0xbd85e95b	-0.0653865
97	0x3c894796	0.016757768
98	0xbd8d13a1	-0.068885095
99	0x3d44967b	0.04799507
100	0xbd54cb38	-0.051951617
101	0xbc660a8e	-0.014040602
102	0x3dc2ca5d	0.09511254
103	0xbd560b5f	-0.052256938
104	0x3d9e0e4c	0.07717571
105	0xbd01e9e1	-0.031717185
106	0xbd846618	-0.06464785
107	0x3dc9c467	0.09851914
108	0x3cbe3485	0.023218403
109	0xbd04b4bd	-0.032398928
110	0x3d6ca8b0	0.05777806
111	0xbdbe072e	-0.09278713
112	0xbc589a69	-0.013220408
113	0xbd9856c5	-0.07438425
114	0xbb34a008	-0.0027561206
115	0x3d97f358	0.07419461
116	0xbd19d4c7	-0.037556436
117	0x3bb099b4	0.0053894166
118	0xbca96440	-0.020677686
119	0xbc867931	-0.01641521
120	0x3d018daa	0.031629242
121	0xba8df223	-0.0010829609
122	0xbca60c1b	-0.020269444
123	0x3cc9d2fd	0.02463674
124	0xbd87401d	-0.066040255
125	0xbd4000f3	-0.046875905
126	0xbd989e59	-0.074520774
127	0xbbb07b4e	-0.005385793

weight f4 [7, 128]
0	0xbd8e82d4	-0.06958547
1	0xbc961f79	-0.018325554
2	0xbd8ad5b4	-0.06779042
3	0xb9c189e8	-0.00036914577
4	0x3cf78b05	0.030217657
5	0xbca45fd6	-0.02006523
6	0xbd4c3ca7	-0.04986253
7	0xbd777840	-0.060417414
8	0xbc2a18e7	-0.010381914
9	0xbd00f7e6	-0.031486414
10	0x3d569cd5	0.05239566
11	0x3c01943a	0.007908875
12	0x3da3c7fe	0.0799713
13	0x3c7eb9a1	0.015547187
14	0xbc6ccb44	-0.014452759
15	0x3d022ffc	0.031784043
16	0x3c8749b3	0.016514635
17	0x3d7e94ef	0.062153753
18	0xbd00f095	-0.031479437
19	0xbd85f165	-0.06540183
20	0xbcab2f6f	-0.020896642
21	0xbd71cae0	-0.059031367
22	0x3d840816	0.06446855
23	0x3d4a6905	0.04941656
24	0xbceeebb5	-0.029165128
25	0xbbdec073	-0.006797844
26	0xbd7fffd7	-0.062499847
27	0xbd0711d0	-0.03297597
28	0x3d22ace3	0.03971566
29	0xbc27152c	-0.010197919
30	0xbbb43f31	-0.005500697
31	0xbd7941f3	-0.06085391
32	0xbd5a9090	-0.05336052
33	0xbd4f5ce3	-0.050625693
34	0x3d07426e	0.033022337
35	0x3da18ea3	0.07888534
36	0xbcbae255	-0.022813002
37	0x3d91af35	0.07113496
38	0x3d82b2a4	0.06381729
39	0xbcf4458c	-0.029818319
40	0xbd55016e	-0.052003317
41	0xbd46d169	-0.048539553
42	0xbc4d9854	-0.012548525
43	0x3c98b313	0.018640077
44	0x3cdd423a	0.027009118
45	0x3d648fd4	0.055801228
46	0xbd82b46a	-0.063820675
47	0xbce01e76	-0.027358275
48	0xbc30d4f4	-0.0107929595
49	0xbadf279f	-0.0017025358
50	0xbc9eb352	-0.019372616
51	0x3d043597	0.03227767
52	0xbdb13f42	-0.086546436
53	0x3d817041	0.06320239
54	0x3d8c8ac2	0.068624035
55	0x3d4146e6	0.047186755
56	0xbd7e9508	-0.062153846
57	0xbd6287bb	-0.055305224
58	0x3d0981d4	0.03357108
59	0x3db4e736	0.088331625
60	0xbcee7916	-0.029110473
61	0x3da8c6d3	0.08241048
62	0xbd30ef61	-0.04319704
63	0x3ca43559	0.02004497
64	0x3d15ebb1	0.036601726
65	0x3d942626	0.07233839
66	0x39fc3be1	0.000481098
67	0x3d1b372f	0.037894424
68	0x3d86eb0b	0.065878
69	0x3d8e90e4	0.069612294
70	0x3dc23968	0.094836056
71	0x3cded0a0	0.02719909
72	0xbd28a1d8	-0.04116997
73	0x3ca4db77	0.02012418
74	0xbda86836	-0.08223002
75	0xbd8b6879	-0.06807036
76	0xbd4275c0	-0.047475576
77	0x3dbcd2bb	0.09219881
78	0xbda98b93	-0.08278575
79	0x3bfe0e4c	0.007753169
80	0x3d0ca4c7	0.03433683
81	0x3c8be125	0.01707513
82	0xbd2e2fb6	-0.04252597
83	0xbd3c4546	-0.0459645
84	0x3d0eb996	0.034844957
85	0x3cdcee5b	0.026969125
86	0x3dbca958	0.09211987
87	0x3cdf30d1	0.027244957
88	0x3da33fe9	0.07971174
89	0xbce82095	-0.028335849
90	0xbd0f7bea	-0.035030283
91	0x3d8c8dad	0.0686296
92	0xbc883b90	-0.016629964
93	0xbcae7c98	-0.021299645
94	0x3d8ada1e	0.06779884
95	0xbd9d8565	-0.076914586
96	0xbdb664fb	-0.08905979
97	0xbd91c060	-0.07116771
98	0xbd2b6de4	-0.041852847
99	0xbd8ecce8	-0.069726765
100	0x39835c95	0.00025055246
101	0xbd3611a6	-0.044450425
102	0xbd8a8aec	-0.067647785
103	0xbd7bbe27	-0.06146064
104	0x3cb6e9ed	0.022328341
105	0x3c110ef1	0.00885366
106	0xbd905c27	-0.07048827
107	0xbd3da35c	-0.04629837
108	0xbd860a2c	-0.06544909
109	0xbda7b722	-0.08189227
110	0xbd3fcf21	-0.046828393
111	0x3d9dda5b	0.077076636
112	0xbbb55dc3	-0.005534859
113	0xbce701f7	-0.02819918
114	0xbd88fc52	-0.06688751
115	0x3d9a68e7	0.0753954
116	0xbda49cd4	-0.08037725
117	0x3da10cbc	0.07863757
118	0xbc7ce784	-0.015436057
119	0xbbfbd263	-0.007684992
120	0xbda3ba3a	-0.07994504
121	0xbca0c48b	-0.019624969
122	0x3d86e2a8	0.065862
123	0x3d2dafb4	0.04240389
124	0x3daed100	0.08535957
125	0x3d3b0fb8	0.045669287
126	0x3cdf12ec	0.027230702
127	0x3d91e130	0.07123029
128	0xbd7aa838	-0.061195582
129	0xbd98b848	-0.07457024
130	0xbda16474	-0.07880488
131	0x3da9c400	0.08289337
132	0x3da356cf	0.07975542
133	0x3c27cbd8	0.010241471
134	0xbd808533	-0.06275406
135	0x3d27ceee	0.040968828
136	0xbd8cb010	-0.06869519
137	0xbc424842	-0.011858048
138	0xbd2ab301	-0.041674618
139	0xbdaf3846	-0.08555655
140	0x3c498f4c	0.012302231
141	0xbd56aa5d	-0.052408565
142	0xbd0ac664	-0.033880606
143	0x3cfe9995	0.031079093
144	0xbd46d09a	-0.04853878
145	0xbc587fb8	-0.013214044
146	0xbd867782	-0.06565763
147	0xbcc77249	-0.024346488
148	0x3d7a5b72	0.061122365
149	0xbd0b77bd	-0.03404974
150	0xbdb978da	-0.09056254
151	0x3d76c775	0.06024881
152	0x3d733f6a	0.05938665
153	0x3bd99435	0.006639982
154	0xbda78c49	-0.08181054
155	0x3d0d3bbc	0.034480795
156	0x38ad6b86	8.269311e-05
157	0xbd6e5a78	-0.058191746
158	0xbd5849e0	-0.052804828
159	0x3cf64fbe	0.03006732
160	0xbcd302df	-0.025758205
161	0xbd3010fc	-0.042984948
162	0xbc9f8c72	-0.01947615
163	0x3cc6f7f3	0.024288153
164	0x3d8f05fe	0.06983565
165	0xbcb53c6c	-0.022123538
166	0xbd97b3b9	-0.07407326
167	0xbad5fb0b	-0.0016325427
168	0xbd9ff05d	-0.078095175
169	0x3d6ca527	0.05777469
170	0xbd95fcb6	-0.073235914
171	0xbd0ce745	-0.034400243
172	0x3d99a4f2	0.07502164
173	0xbc66fdcb	-0.014098595
174	0x3d239550	0.039937317
175	0xbd0d9966	-0.03457012
176	0xbca59b76	-0.020215731
177	0xbda0a43a	-0.07843824
178	0x3d9263d8	0.0714795
179	0x3d92ae41	0.071621425
180	0xbd9a53cb	-0.075355135
181	0xbd1b3179	-0.037888978
182	0xbd835e6f	-0.06414496
183	0xbd87aeda	-0.06625147
184	0x3cd49016	0.025947612
185	0x3d527198	0.051377863
186	0xbd3864ae	-0.04501789
187	0x3c6a96e3	0.014318201
188	0xbd8cdc10	-0.06877911
189	0x3c7ab2e9	0.015301445
190	0xbcf740b4	-0.03018222
191	0x3d225dd3	0.03964026
192	0xbdaa78ef	-0.083238475
193	0xbd6934af	-0.05693501
194	0xbd152442	-0.03641153
195	0xbc5cb770	-0.013471469
196	0x3d10efb6	0.035384856
197	0x3d1eab5e	0.038737647
198	0x3b00a641	0.0019630345
199	0xbc713f53	-0.01472457
200	0xbcbe9e36	-0.0232688
201	0x3d01a55a	0.031651832
202	0xbc335c0f	-0.010947241
203	0x3d96bd6c	0.07360348
204	0xbd61521b	-0.055009943
205	0xbd735b6e	-0.059413366
206	0x3cf41b6d	0.029798234
207	0x3d476a42	0.04868532
208	0x3cfcdac5	0.030866036
209	0xbd385f15	-0.045012552
210	0x3ca7318f	0.020409374
211	0xbcdf56ad	-0.02726301
212	0x3d76af82	0.06022597
213	0xbd4adc0a	-0.04952625
214	0x3d032683	0.03201915
215	0x3c498d87	0.012301809
216	0x3c9ee17f	0.019394634
217	0xbb26501d	-0.002537734
218	0x3cfacb0d	0.0306144
219	0xbd57b934	-0.052666858
220	0xbbf423e8	-0.0074505694
221	0x3cb2b052	0.021812592
222	0xbc059eff	-0.008155583
223	0x3a954f0d	0.0011391357
224	0x3c2d48cb	0.010576437
225	0x3c87e9a6	0.016590904
226	0x3b4e9d00	0.0031526685
227	0x3cb94904	0.022617824
228	0xbd3633b9	-0.04448292
229	0x3d0aca38	0.033884257
230	0xbda1db1c	-0.0790312
231	0x3a9a96a5	0.0011794163
232	0xbd936d3f	-0.071985714
233	0x3d16ad55	0.036786396
234	0x3c877da9	0.016539412
235	0xbd7b566e	-0.061361723
236	0x3d42257d	0.047399033
237	0xbd928dea	-0.07155974
238	0x3cb4676c	0.022021972
239	0xbd795e15	-0.06088074
240	0xbd91f5f9	-0.07126994
241	0xbcd37fa4	-0.0258177
242	0x3d9265f3	0.071483515
243	0xbcf8ffb7	-0.030395372
244	0x3ceb937a	0.028756846
245	0x3b9a1f83	0.0047034635
246	0xbd05d643	-0.03267504
247	0xbd3d4e1b	-0.046217065
248	0xbd93444f	-0.07190763
249	0x3d1f948c	0.038960025
250	0xbd698792	-0.057014056
251	0x3cb6af62	0.022300426
252	0xbd7f3065	-0.062302012
253	0x3cc6afac	0.024253689
254	0xbd7ada46	-0.061243318
255	0x3d41acdd	0.047283996

bias f4 [7]
0	0xbd8ddf4d	-0.06927357
1	0x3c8e87ed	0.017398799
2	0x3d3a728b	0.045519393
3	0xbd80335f	-0.06259798
4	0xbda9d7f3	-0.08293142
5	0x3d974ab2	0.07387294
6	0xbd67df94	-0.056609705
